ROB501/rob501_fall_2020_assignment_05/best_model_20.pth (torch, 165400 bytes, 12 tensors)

conv1.weight f4 [16, 3, 9, 9]
000000 11 64 a9 3d fc 70 d5 3d 8a 31 0d 3d 84 f7 ca 3d
       0.08271039 0.10421941 0.034471072 0.09910491
000010 71 16 ad 3c 6e 83 cb 3c 18 9b 1b bc e0 4a 5d 3d
       0.021128865 0.024842944 -0.009497426 0.054026484
000020 23 f2 9b 3d 03 68 31 bc 4b 8e ba 3d d9 71 29 3d
       0.07614543 -0.010828021 0.091091715 0.04136834
000030 f6 a9 8e 3d c5 ba 21 3d 52 45 11 3d 92 ad 8c bc
       0.06966011 0.039484758 0.0354665 -0.017172609
000040 0f 19 29 3d 2c 4c 74 3c 15 8f d1 bc 38 1a be 3c
       0.041283663 0.014910739 -0.025580922 0.023205861
000050 56 4a b0 bc 8e 24 60 bc 36 87 0c bd b8 e6 72 3c
       -0.021519821 -0.01368059 -0.034308635 0.014825515
000060 e9 15 94 bd 5c f3 6b bd 95 be 3d bd fb 6e 0c bd
       -0.072307415 -0.057605132 -0.04632433 -0.034285527
000070 12 22 13 ba 68 d3 80 bd 15 1a 31 3d 81 ce a3 bd
       -0.0005612682 -0.062903225 0.043237764 -0.07998372
000080 a0 0e e2 3c b8 07 d8 ba 29 75 0d bd e2 2c f6 3c
       0.027594864 -0.0016481793 -0.03453556 0.030050699
000090 27 17 10 bc 98 02 04 3d 5b 8f d1 ba 76 09 30 bd
       -0.008794582 0.032229036 -0.0015988158 -0.042977773
0000a0 2b e0 80 bb d0 a5 53 bd b8 8a bb bb dd ef df 3c
       -0.003932973 -0.051671803 -0.0057233237 0.027336055
0000b0 35 6f 86 3c 96 87 19 bd 5b 60 55 b9 43 21 3b bc
       0.01641045 -0.03748282 -0.00020349158 -0.011421504
0000c0 71 57 13 3c 0c e8 7d bd b2 5e 9c bd 60 c9 f0 bc
       0.008993016 -0.061988875 -0.07635249 -0.029392898
0000d0 31 22 88 bd bc 30 4e 3d db d7 4d 3b 4e 9b d9 ba
       -0.066471465 0.050339445 0.0031409177 -0.001660207
0000e0 12 08 71 bb 63 62 d1 bc 1b 46 0d 3d 20 a8 87 bd
       -0.0036778492 -0.02555961 0.034490686 -0.06623864
0000f0 d3 9c 40 bc 63 ef 49 bd d8 b9 c9 3c ec 47 a1 bc
       -0.01175614 -0.049300563 0.02462475 -0.019687615
000100 36 30 87 3c 8b 7c 25 bc 31 3b 57 3d 21 3c 03 bd
       0.016502481 -0.010100494 0.052546684 -0.032039765
000110 09 4e 10 bd 95 84 39 bd 31 ad 7a 3d 16 e4 10 3d
       -0.03523067 -0.045292456 0.061200324 0.03537377
000120 d0 8e da 3c 24 cb 94 bd 5c 03 b3 bd f9 b1 82 bd
       0.026679426 -0.072653085 -0.08740875 -0.06381602
000130 3d 89 55 bd a3 69 f6 3c 3d 3b 96 3c b0 19 85 3d
       -0.052132834 0.030079668 0.018338794 0.0649904
000140 92 f3 2d bc 93 26 1a bd 80 4f 64 3d 23 41 d9 ba
       -0.010617154 -0.037634443 0.05573988 -0.0016575198
000150 2a 2e 4f 3d b2 fd be 3a d5 ad 09 3d 93 a0 30 bd
       0.050581135 0.0014571457 0.033613045 -0.043121886
000160 86 db 01 bd 0c 3a 88 3c 4e 92 cd 3c 36 37 c4 bb
       -0.031703494 0.016629241 0.025094178 -0.005988027
000170 09 d2 2c 3d e6 e6 3c 3d b2 45 0b bd 8e 84 24 bd
       0.042192493 0.04611864 -0.034002014 -0.040165477
000180 e8 27 31 3d ed 27 32 bd e7 b4 25 bd ac c8 91 bd
       0.04325095 -0.043495107 -0.040455725 -0.07118353
000190 70 74 36 bd c7 b8 45 3c 1d b1 ea bc f9 7a 83 bd
       -0.044544637 0.01206798 -0.028648907 -0.064199395
0001a0 20 74 25 bd 6d 78 9a bd eb 9e c5 bd d8 91 90 bd
       -0.04039395 -0.07542501 -0.09649452 -0.070590675
0001b0 a0 09 81 bd 6c dd 35 bd 77 79 47 3d 9d aa 8c bc
       -0.06300664 -0.044400617 0.048699822 -0.017171199
0001c0 e1 e2 4b bc b6 a9 bf bd f2 94 77 bd 70 d8 22 bd
       -0.012444229 -0.09358542 -0.06044478 -0.039757192
0001d0 3a ec 93 bc 3d d8 88 bd b2 e8 2a bd c4 eb 4b bd
       -0.018056978 -0.06681869 -0.04172582 -0.04978539
0001e0 b4 0a 02 bd 38 89 2e bd 4b 90 15 bd f4 d4 95 bd
       -0.03174849 -0.04261133 -0.03651456 -0.07316008
0001f0 1d e2 9a bd e2 a5 89 bd 36 50 e5 bc 96 2c a4 bd
       -0.07562659 -0.06721093 -0.02799235 -0.080163166
000200 f4 d9 f8 3c cc 59 17 bd e9 6d 13 3d d9 8a a9 3b
       0.030377366 -0.03695087 0.03599349 0.0051740226
000210 ca 48 76 bd 07 cc c0 3c 16 94 bd bc 53 1a 41 bd
       -0.06012801 0.023534788 -0.023141902 -0.047144245
000220 fb 6f a3 bd 00 76 ae bd c0 ba b8 37 4e 5a e3 bc
       -0.07980343 -0.085186005 2.2021472e-05 -0.027753022
000230 c0 69 43 3c 37 ad 7f bd 2f 50 10 3d 99 12 2d bd
       0.011927068 -0.06242105 0.03523272 -0.042254064
000240 c9 71 8e bc ee f8 11 3c 41 32 ee 3c a2 36 43 3d
       -0.017388241 0.008909447 0.029076697 0.047659524
000250 67 c4 75 3d 7a 4a 4c bd 65 72 03 3b 75 19 07 bd
       0.060001757 -0.049875714 0.0020057198 -0.032983262
000260 c6 da 6e bb 5b e8 a2 bd a1 b1 18 3d f4 49 81 bd
       -0.0036446317 -0.079544745 0.037278775 -0.063129336
000270 e7 3f ea 3c 12 de 55 3c 09 65 9a 3c 7d cc 2b bd
       0.028594924 0.013053434 0.018847005 -0.041943062
000280 99 90 82 3d 03 4d 0b 3d c4 86 60 3c b5 64 1f bd
       0.06375236 0.03400899 0.013704006 -0.0389144
000290 81 d7 47 3d bc bd f6 3b 8f 98 61 bb dd a1 70 3d
       0.048789505 0.0075299423 -0.0034423207 0.058748115
0002a0 af 7a b8 3c 83 5f 06 bd 73 f8 f5 bc 28 ea 97 3b
       0.022519438 -0.03280593 -0.030025696 0.004636068
0002b0 e6 47 49 3d 5c 4a 07 bc 3f fe a2 bc 19 f6 90 3b
       0.049140833 -0.008257475 -0.019896625 0.0044238684
0002c0 4a 46 08 bd 3b b3 f1 3c 0a 33 20 3d a6 e9 70 bd
       -0.033270158 0.029504409 0.039111175 -0.058816575
0002d0 b5 e6 e3 3c 22 5f 34 3d a9 11 e4 3c 80 ad 9e bc
       0.02781997 0.04403604 0.027840452 -0.01936984
0002e0 79 7f 26 3d f9 1a a1 3c 89 db 88 3c 5a c4 a2 bc
       0.04064891 0.019666182 0.016706245 -0.019869018
0002f0 5d c3 9b bc 42 ce ed 3c 8a 19 94 3c 98 1c dc bb
       -0.019014055 0.029029015 0.018078584 -0.006717276
000300 7b 06 2a 3d 49 90 6f 3d 5e 90 de bb e6 6a 6f 3c
       0.041510087 0.05848721 -0.0067921123 0.014612889
000310 f5 9e e6 3c 91 21 c5 3b 82 55 2a 3d a0 c5 1e 3d
       0.028151968 0.0060159643 0.041585453 0.03876269
000320 69 9f 18 bd d7 86 88 bc 09 0d 84 3d 7a 8c 08 3d
       -0.0372614 -0.01666586 0.06447799 0.033337094
000330 3f 74 79 3c 6b d0 dc bc d0 70 1b bd a2 d3 b7 bc
       0.015225469 -0.02695485 -0.037949383 -0.022439782
000340 5f 41 98 bb 69 5f 12 3d 2d 6a 71 3d f7 da 5d 3d
       -0.0046464647 0.03573552 0.058939148 0.0541639
000350 73 72 e4 bc b3 f3 94 3a 13 6b 81 3c ce f8 cc 3d
       -0.027886605 0.0011364132 0.015798127 0.10008393
000360 5a c3 d5 3c 2e e3 fc ba f7 63 24 3d 77 7a be bb
       0.026094127 -0.0019293779 0.040134396 -0.005812939
000370 51 83 a6 bc a2 eb 8d 3d a2 c9 ca 39 6a 81 7f 3c
       -0.020326288 0.06929709 0.0003867867 0.01559482
000380 81 26 95 bc 92 17 7f 3d b2 1d 8c 3d 28 57 1e 3d
       -0.018206837 0.062278338 0.068416014 0.038657337
000390 db d9 a6 bc a0 c5 0c bd 60 02 b5 bc 0f 89 6b 3d
       -0.020367553 -0.034368157 -0.022095859 0.057503756
0003a0 87 fc 5a 3d a5 58 b0 3d 4c 3f 07 3d a2 06 ab 3c
       0.053463485 0.086106576 0.03301935 0.020877186
0003b0 08 94 74 3c ab b3 f7 bc 88 f9 10 bd e3 cd 0a bd
       0.0149278715 -0.03023704 -0.03539422 -0.033887755
0003c0 6a f3 35 3d 9a b0 f9 ba 78 79 06 3d 2e 4b 12 bd
       0.04442159 -0.0019049824 0.032830685 -0.03571623
0003d0 a0 de 6d bc 4e 6a 1e bd d0 96 49 bd e6 ce 3f b9
       -0.01451841 -0.0386756 -0.04921609 -0.00018292255
0003e0 d0 ee f4 bc f7 37 24 3d d1 a0 ef bc b7 80 74 bd
       -0.02989903 0.040092435 -0.029251488 -0.059693065
0003f0 63 50 92 bc 4a 30 3a bd b5 e3 c0 bc cf fe 9b bd
       -0.017860597 -0.04545621 -0.02354608 -0.0761696

conv1.bias f4 [16]
000000 63 c8 30 bd e6 00 ee bd f8 ca ed bc 58 0a ef bd
       -0.043159854 -0.11621265 -0.029027447 -0.11671895
000010 ca b2 6a bd a6 a1 a4 bd 04 47 5f bd 2e 49 64 be
       -0.057299413 -0.080386445 -0.054511085 -0.22293541
000020 32 6e 28 be 9e ba e9 bd 77 3f 1b be f1 f0 53 bd
       -0.16448286 -0.114125475 -0.15160929 -0.05174345
000030 38 b1 af bc 26 d5 b3 bd cd bd d7 bd 40 7a c1 bd
       -0.02144681 -0.08780889 -0.105342485 -0.094471455

conv2.weight f4 [16, 16, 9, 9]
000000 39 75 aa ba 0f 58 cb b9 e8 3c 29 3d e3 13 aa 3d
       -0.0013004906 -0.00038784786 0.04131785 0.08304574
000010 e7 57 a0 3d 59 39 76 3d 68 c9 01 3d 09 2b 4f 3c
       0.07829266 0.060113285 0.031686217 0.012644538
000020 79 b8 56 bd 9e 87 2a bd ce be d5 bc fa c1 0b bd
       -0.05242202 -0.04163324 -0.02609196 -0.034120537
000030 48 fb 50 3d 0f 18 0f bc ea 92 f5 3c 1d d8 29 3d
       0.05102089 -0.008733763 0.02997728 0.041465867
000040 6c 53 21 3b 06 a4 81 bd c7 7d 5a bb 91 f8 35 bc
       0.0024616374 -0.06330113 -0.003333913 -0.011106626
000050 47 96 f1 3c 9d 2a 19 bd bf a6 b5 bc 90 53 01 bb
       0.029490603 -0.037394155 -0.022174237 -0.0019733645
000060 f9 ab 06 bd 5d 30 f1 bb a3 1d 82 bc ba b0 f7 3c
       -0.03287885 -0.0073605017 -0.015883273 0.030235637
000070 a9 21 10 3c e9 86 0a 3c a8 19 53 3b cc f3 22 bc
       0.008797088 0.008455017 0.0032211337 -0.009945821
000080 33 f8 ca ba 12 95 4a 3b 4a ef b3 3b 18 ab d4 bb
       -0.0015485346 0.0030911607 0.005491172 -0.0064901225
000090 9b 05 4f bc d9 a5 2e 3c 09 0a 9b 3b 6b 26 b5 bc
       -0.012635614 0.010659658 0.004731421 -0.022113046
0000a0 38 3f 4a 3d 3f 10 8d 3b 44 13 f1 bc a2 dc 0c 3d
       0.049376696 0.004304915 -0.029428132 0.0343901
0000b0 8e fe 30 3c 77 53 01 bd fe 49 aa 3c f8 27 67 3c
       0.010802878 -0.03157374 0.020787235 0.01410865
0000c0 20 56 15 bc e0 46 b6 bc 32 61 56 bc d1 01 7b b8
       -0.009114772 -0.022250593 -0.013084697 -5.9844755e-05
0000d0 58 ab 9a 3c 02 4b ac bb c3 48 05 3d b7 c3 a5 3c
       0.018880531 -0.005257965 0.032540094 0.020234926
0000e0 c7 6a 23 3d 34 61 10 bc 49 52 14 bc 58 20 01 bd
       0.039896753 -0.0088122375 -0.009052821 -0.031524986
0000f0 31 57 1c bd 79 b5 89 3c 2a ec 69 bc aa 5d b7 3c
       -0.03816909 0.016810166 -0.014277497 0.02238353
000100 17 7b ff bc a2 b0 01 3c a4 d0 5e bb 4c 36 44 bc
       -0.031186623 0.007915648 -0.0033998871 -0.011975836
000110 db 44 80 bc 72 22 bb bc 42 a2 e1 bc 77 4d f7 3a
       -0.015657833 -0.022843573 -0.02754319 0.0018867691
000120 5b ce 1e 3d f5 e5 b6 3c 5f 12 83 3c 3e 46 da 3c
       0.038771015 0.022326449 0.015999971 0.026644822
000130 6f b1 1f 3d fd 71 3c 3d 5d 15 1d 3d 51 a4 55 3d
       0.038987573 0.046007145 0.03835045 0.052158657
000140 e2 77 08 3d d3 c3 88 bb 3c bd 79 3c 34 fa 80 bc
       0.033317454 -0.0041737347 0.015242871 -0.015744306
000150 39 d3 8f bc e6 70 36 bb 92 ad 18 bb 48 3f 10 3d
       -0.017556773 -0.0027838289 -0.0023296815 0.0352166
000160 0d b4 ab 3c 48 a6 47 bc 48 11 60 bb d2 a6 15 bc
       0.020959878 -0.012185641 -0.0034189988 -0.009134011
000170 00 41 df 37 8e a0 c1 bc 3f 4e 6d bb 69 2f df bb
       2.661394e-05 -0.023636129 -0.0036209968 -0.0068110717
000180 6e 95 5f 3d 00 34 4c 3c 6d 29 cd bc b0 dd 89 3b
       0.054585867 0.01246357 -0.025044167 0.0042073354
000190 66 9f 2c bd 7d 1a b8 bc 02 8d 95 bb b4 72 13 bc
       -0.0421442 -0.022473568 -0.0045639286 -0.008999515
0001a0 cb 79 7a bb 62 95 f9 bc fa a1 2b 3c 29 53 b5 3c
       -0.0038219567 -0.03046674 0.01047563 0.02213438
0001b0 02 b7 00 bd d1 22 1d bd 60 cc 25 3a 00 6c 9e bb
       -0.03142453 -0.03836328 0.0006324705 -0.004834652
0001c0 b4 e3 fe b9 86 40 2a bd 4c 5d 01 3c 42 30 be bb
       -0.00048616307 -0.04156544 0.007895779 -0.0058040926
0001d0 5c 64 fc 3c 94 9a f6 3b aa 18 09 bd 09 0c bb ba
       0.030809574 0.0075257514 -0.033470787 -0.0014270555
0001e0 d6 bf a8 bc 69 76 05 3d 91 35 cb 3b a6 20 bb ba
       -0.020599287 0.032583628 0.006201454 -0.0014276698
0001f0 a7 85 33 bc 36 bc 3c 3c 6a 5a 87 bc 9a 3c b8 3b
       -0.010957158 0.011519482 -0.016522605 0.0056224586
000200 44 ba 7f 3c b0 13 90 bb 13 92 66 3b 56 7d 72 3c
       0.015608374 -0.004396878 0.0035182282 0.01480039
000210 72 7e a7 3b ce 1d 94 bc cc cc b0 3b 97 54 dd 3b
       0.005111509 -0.018080618 0.0053955074 0.0067544687
000220 52 ed 88 3c 1b 06 71 3c 40 18 55 bc 19 f1 86 3c
       0.016714726 0.014710928 -0.01300627 0.016472386
000230 8d cc de 3b 2c 84 89 bb 3c 11 d8 bc 47 95 de 3b
       0.0067992867 -0.0041966643 -0.026375405 0.0067926976
000240 53 c4 43 bc 73 79 fa b8 24 ad b1 bb f2 cf 94 3c
       -0.011948663 -0.000119435506 -0.0054222513 0.018165562
000250 6f 16 b0 bc 2c a2 8a ba ad 90 83 bc b0 77 49 3c
       -0.021495072 -0.0010576895 -0.016060198 0.012296602
000260 d3 34 e9 b8 ae e5 7d bc e7 7a 3c 3c 00 e1 bb 3c
       -0.00011120145 -0.015496654 0.011503912 0.022934437
000270 44 ff 90 3c d4 e7 bb 3c 74 92 83 3c 5f d5 9a 3c
       0.017699845 0.022937693 0.016061045 0.018900571
000280 e4 da c7 3c 4f 11 92 bc cc c4 fb bc d6 67 d5 bb
       0.024396367 -0.017830519 -0.030733489 -0.0065126223
000290 9b 08 2b 3d eb a7 56 3d 51 f7 34 3d f8 8d 5f 3d
       0.041756254 0.052406233 0.04418117 0.05457875
0002a0 be 7c 35 bc cb 35 7c 3d f7 a9 69 bb cc 0c 9f 3b
       -0.011077104 0.06157474 -0.0035654285 0.0048538204
0002b0 c6 75 86 bc 53 eb 2e bd 42 c9 06 bd 0f 2d 9e 3c
       -0.01641358 -0.04270489 -0.03290678 0.019308595
0002c0 5d 55 ba bb 25 87 08 3d fe 9d ba 3d b0 3c 76 3d
       -0.0056864456 0.03333201 0.09112166 0.06011647
0002d0 eb 02 5e 3d d0 da a3 b9 c8 fb 8d 3c 2e 9c b7 bc
       0.054202 -0.0003125281 0.017331973 -0.02241334
0002e0 41 3b 5c bd 48 f6 f3 3b e2 ce cb bb 48 a5 33 3d
       -0.053767446 0.0074451305 -0.0062197307 0.043858796
0002f0 fe 4c 71 3d 44 b6 1e 3d f9 d5 23 bb 3a 3f 30 bc
       0.058911316 0.03874804 -0.0024999364 -0.010757262
000300 d8 76 a2 bc 47 a0 16 bc 42 c9 26 3c 49 24 e5 3c
       -0.01983206 -0.0091934865 0.01017982 0.027971404
000310 c4 e8 fd bc 94 56 34 bc 2c e4 c6 bc 45 72 be bb
       -0.03099478 -0.01100697 -0.024278723 -0.005811962
000320 c8 5f 99 3c c7 54 18 3c 9c f0 d5 3c f6 fa fa bc
       0.01872243 0.009297556 0.026115708 -0.030637246
000330 3f 78 0a bb 54 a7 61 bd 69 c9 69 3c 5f da a1 ba
       -0.00211288 -0.055091217 0.014269211 -0.0012348405
000340 43 04 25 bb b7 ac 68 3c 65 f1 16 3d 06 ce 8a 3d
       -0.0025179542 0.014201335 0.036851306 0.06777577
000350 98 51 4f 3c 26 2d 85 3c 7d d2 9e bb 48 bd 4a 3a
       0.012653731 0.01625688 -0.0048468695 0.00077338936
000360 2c 03 e9 3c 15 e8 e5 bc 82 aa a1 bc fd 08 a2 3a
       0.028443895 -0.028064767 -0.019734625 0.0012362298
000370 ee 1c e9 3a 62 e9 ba bc 67 b4 10 bc 3a 9b 5c 3c
       0.0017785111 -0.022816364 -0.008832074 0.013464743
000380 bc 19 f9 bb 42 f3 35 bb bc 69 bd 3c 26 76 21 3c
       -0.0076019447 -0.00277634 0.023121707 0.009854829
000390 dd 63 5d bd 77 65 ae 3b fc ed 1d bd 95 51 6b bc
       -0.054050315 0.005322154 -0.038557038 -0.014362712
0003a0 ef b4 7e bc cd 18 53 ba 75 f5 a9 bc c7 6b 05 bd
       -0.015546068 -0.0008052707 -0.020746926 -0.032573488
0003b0 19 5c 47 bc 16 98 4e bd e4 f4 e7 3b 42 8e ce bb
       -0.012167954 -0.05043801 0.007078754 -0.0063035795
0003c0 a9 3c cd bc 22 7b 0d bd 9d 43 ba bb b8 ad 23 3d
       -0.02505334 -0.034541257 -0.0056843297 0.039960593
0003d0 9c 91 82 3c 43 56 f9 bb b6 11 a3 3d 38 5e 5b 3d
       0.015938573 -0.00760916 0.079623625 0.05355665
0003e0 0c 3f 04 3d c3 4c 16 bc 8e 42 fc 3b 0a 7e 21 bd
       0.03228669 -0.009173575 0.0076983636 -0.03942684
0003f0 58 8e 79 bd 56 a7 67 bd b3 d7 0a bd a3 db b8 3c
       -0.060926765 -0.05655607 -0.033897113 0.022565668

conv2.bias f4 [16]
000000 64 2d 59 bc 18 d4 07 bc 16 1f 0c bd e5 4d e1 3b
       -0.013255451 -0.008290313 -0.034209333 0.006875741
000010 0f ea e0 3c c8 ed bc bc bf c6 a8 bc f6 09 67 bb
       0.027455358 -0.023062602 -0.020602582 -0.003525374
000020 66 2d 47 bc 64 25 8c 3b ba 8d 2b bc f8 ec 88 3c
       -0.01215682 0.0042769182 -0.010470802 0.016714558
000030 6a aa 6e bb fc a7 b7 bc 04 08 52 3c 18 8c a8 bc
       -0.0036417493 -0.022418968 0.012819294 -0.020574614

batch2.weight f4 [16]
000000 7f 3c a3 3f a1 14 9e 3f 36 af 9f 3f 8f 01 a1 3f
       1.2752837 1.2350045 1.2475345 1.2578601
000010 7e fc 97 3f 36 9a 9e 3f fa 4f 9d 3f a4 90 a0 3f
       1.187393 1.2390811 1.2290032 1.2544141
000020 4c bb 9e 3f 26 29 9f 3f 4a ad 9e 3f c3 d8 9f 3f
       1.2400908 1.2434433 1.2396634 1.2488025
000030 85 b3 9f 3f 2f 55 98 3f 65 43 a6 3f 50 2a 9e 3f
       1.247666 1.1900996 1.2989317 1.2356663

batch2.bias f4 [16]
000000 75 dc f5 3d ad 65 a2 3c c8 db 27 3d 82 7c c4 3d
       0.120049395 0.019823873 0.040981084 0.095940605
000010 da 6b c2 3c b0 1f 8c 3d f7 0b 56 3d 4d 89 a8 3d
       0.023733068 0.068419814 0.052257504 0.08229313
000020 45 e8 1a 3d 89 1e 4a 3d df 67 31 3d f2 67 42 3d
       0.037819166 0.049345527 0.04331195 0.04746241
000030 04 3c 8d 3d 2d a7 ac 3d af 44 cc 3d cf 83 f4 3b
       0.06896213 0.08430324 0.09974038 0.007462002

batch2.running_mean f4 [16]
000000 b4 ef dc c2 79 9b 99 42 14 6e a2 42 63 bb ac 42
       -110.46817 76.80366 81.215 86.36599
000010 7e 58 85 42 9e b8 12 41 1c f6 3c c3 15 b5 90 42
       66.67284 9.170073 -188.96136 72.353676
000020 05 13 10 42 2b d5 05 c2 9a c3 f7 bf 00 8c b8 c1
       36.018574 -33.45817 -1.9356568 -23.06836
000030 a8 e2 0b 41 68 15 f6 c1 9c 38 05 c2 0d d1 15 c2
       8.742836 -30.760452 -33.305283 -37.45415

batch2.running_var f4 [16]
000000 07 c0 ac 45 77 cd 86 45 f3 ae 5e 45 a0 b3 1c 45
       5528.0034 4313.683 3562.9343 2507.2266
000010 48 11 8c 45 bf 7b 1b 45 ee 28 ae 45 d2 85 30 45
       4482.16 2487.7341 5573.116 2824.3638
000020 6b cd 8a 45 e1 78 6a 45 d9 8b 81 45 c3 73 74 45
       4441.6772 3751.555 4145.481 3911.235
000030 89 8f 55 45 db 0e 27 45 ee c5 4c 45 40 3c 91 45
       3416.971 2672.9285 3276.3706 4647.5312

fc1.weight f4 [64, 224]
000000 55 30 18 bd d4 b1 bd bc bb 5f de 3a 21 36 24 3d
       -0.037155468 -0.023156084 0.0016965786 0.040090684
000010 da 50 c5 3d b1 12 1a bd 1e ff a2 bd 95 61 a5 3c
       0.09634562 -0.03761548 -0.07958816 0.020188132
000020 42 48 a1 3d 93 79 20 bd 4f 11 e3 bb 68 5d 6c bc
       0.0787511 -0.039178442 -0.0069295536 -0.014426567
000030 f3 03 8a 3c e4 09 4f bd c8 7a ee bd b7 88 31 bd
       0.016847586 -0.05054654 -0.116445124 -0.043343272
000040 84 84 c7 bd 8b f7 2c bc 6a 82 58 bd 8a d3 34 bd
       -0.09742072 -0.010557066 -0.052858748 -0.044147052
000050 79 a4 af bd 27 35 3f bd e2 f7 48 bc 90 19 ac bc
       -0.085762925 -0.04668155 -0.012266131 -0.021008283
000060 d0 36 d3 3d d5 66 9f 3d d1 70 dc 3d 2e b8 76 3d
       0.10313189 0.077832855 0.107637055 0.06023424
000070 f6 d4 9e bd c4 55 ce bd 0a 65 70 bd f0 37 93 bd
       -0.07755463 -0.10074952 -0.05869011 -0.071884036
000080 89 e0 86 bd a2 67 8b bd 0f 7f ba 3d 14 ad 80 3c
       -0.065857954 -0.06806876 0.09106266 0.01570753
000090 cc 04 f7 bb 4a 5e 21 bd db 7d 88 bd ea ab b0 3b
       -0.0075384136 -0.03939656 -0.0666463 0.0053915875
0000a0 0a 75 86 3c 16 c0 ed 3b 5c c0 f5 3c 18 d1 a1 ba
       0.01641323 0.0072555644 0.02999895 -0.001234564
0000b0 0c cd 04 3d b3 a4 68 3d 8d d7 e0 3d 79 f4 ee 3d
       0.03242211 0.056797694 0.10978613 0.11667723
0000c0 14 22 f4 3d a5 ae 22 bd 06 5f db 3d 95 4a 24 3c
       0.119205624 -0.039717335 0.10711484 0.010027547
0000d0 63 94 8b bb 2a f9 47 bd 7d e1 7e bd 74 e2 91 3c
       -0.0042596324 -0.048821606 -0.06222676 0.017808177
0000e0 33 be 84 3d 18 44 95 3d e9 8e 04 bd 5c 35 03 3a
       0.0648159 0.072883785 -0.032362852 0.00050052046
0000f0 da 6b 70 bc 83 8a 9a bb 7c 02 2f 3d 1a 13 65 3c
       -0.014674151 -0.004716219 0.04272698 0.013981605
000100 b4 d0 09 bd 4e f9 3a 3c ec a6 99 3c fa d4 29 3d
       -0.0336463 0.011411978 0.018756352 0.041462876
000110 f1 9f d9 bc 49 1f 8b 3c 14 1f d8 bc fb 31 d2 bb
       -0.026565524 0.016982691 -0.026382007 -0.0064146495
000120 50 d4 3f 3a 00 6d 57 bc 42 9d 8c bd 5b 96 a9 3d
       0.0007317709 -0.013148546 -0.06865932 0.08280631
000130 9d db a8 3d 85 8f 1a 3e 0b 1b fc 3d d4 ac 99 3c
       0.08245013 0.15093811 0.123098455 0.018759169
000140 2b d9 da bd c5 d4 63 3c a5 95 1d bd 29 6e 5d bd
       -0.10685953 0.013905709 -0.03847279 -0.054060135
000150 0a da 82 3c f0 af 0a bd cb 06 1e 3c 02 a9 4a bc
       0.01597311 -0.033859193 0.009645174 -0.012369396
000160 0f ec 04 3c 8a 52 75 bc 55 f1 91 3d aa 6f 71 3b
       0.008112921 -0.014973292 0.071261086 0.0036840239
000170 b0 4d 27 3d 9b 75 c6 3c eb 19 d8 bc 14 18 08 bd
       0.040845573 0.024226 -0.026379546 -0.033226088
000180 73 d3 39 bd 5c 09 62 bd c1 6c 8a 3d fb 37 84 bd
       -0.04536767 -0.055184707 0.067590244 -0.0645599
000190 c3 f0 17 bd 3c 99 32 3c 99 16 9f 3c 1d 04 59 3d
       -0.037094843 0.010900792 0.019419955 0.05298244
0001a0 f1 8d 53 bd 70 5c 14 3d fe 4b 34 3e d9 93 a5 3d
       -0.051649038 0.036220968 0.17607114 0.0808484
0001b0 e5 52 1f bd 97 fa 3f 3c e8 d8 aa bb 21 9c a0 bd
       -0.038897414 0.01171746 -0.0052138455 -0.07842279
0001c0 c8 66 0d 3d 92 f0 09 3d 1a df b8 3c 91 f7 77 bd
       0.034521848 0.03367669 0.02256732 -0.060538832
0001d0 f6 4e 96 3c b3 58 ef 3d cd 71 df 3c bb d7 a3 3d
       0.018348198 0.1168684 0.027275944 0.08000132
0001e0 af fb 09 3c 79 eb 15 3c 36 23 43 3d ab 67 54 bc
       0.008421822 0.009150379 0.047641 -0.0129641695
0001f0 cd 2a 46 3d 35 17 bd 3d a4 5e 0c b9 d5 d2 3f bd
       0.04838066 0.09232942 -0.00013386697 -0.046831924
000200 0c b3 be bc dd 82 06 3d 3f f7 9a bd 32 6b f5 3b
       -0.023278736 0.032839645 -0.0756669 0.0074895853
000210 cf 9c 58 3d 34 80 a6 3d 67 b4 f2 3c f1 6e 13 3e
       0.05288392 0.081299216 0.029627038 0.1439779
000220 7c 5a 99 3d ba 5a bf 3d f0 8f 5a 3a 68 7d bb 3d
       0.07487962 0.093434766 0.00083374884 0.09154779
000230 a2 9d a1 bd 86 72 82 3c 75 ff 91 3d 73 87 32 3c
       -0.07891394 0.01592375 0.07128803 0.010896551
000240 bb 5a 8f bd 44 91 3b bc dc 88 f0 bc 42 b5 af bd
       -0.06999727 -0.011448208 -0.029362135 -0.08579494
000250 96 1a e7 bd 6b 63 83 3d 9f 9b b9 3d f9 dd 7d 3d
       -0.11284368 0.06415447 0.090628855 0.061979268
000260 40 ce 01 3e 29 46 78 3d fe a8 29 3c c4 9e 4b 3d
       0.12676334 0.060613785 0.010355232 0.049711958
000270 5b 5f 85 bd 7a ec 31 3b 5e 1e e5 3c e5 e8 47 3d
       -0.06512328 0.0027149008 0.027968582 0.04880609
000280 84 48 9b 3d 6d f6 58 3d 7a c4 84 bc c4 e3 81 bd
       0.07582191 0.052969385 -0.016206969 -0.06342271
000290 44 34 9e bc f8 76 ce 3c aa 43 c0 bc cf dc a1 bc
       -0.019312032 0.025203213 -0.023469765 -0.01975861
0002a0 d6 81 3c 3c c1 13 95 bc bf b1 08 bc 56 80 53 bc
       0.011505565 -0.018197896 -0.008343159 -0.012909016
0002b0 35 a4 57 3d 5d b7 d4 3d 02 fb 04 3e 7b 60 45 3d
       0.052646834 0.10386536 0.12986377 0.048187714
0002c0 b8 9c ef 3d fb fb 12 bc b9 78 5e bc a9 cc a2 bd
       0.116998136 -0.00897121 -0.013578587 -0.07949192
0002d0 b9 9d 94 3d 5e 7d 29 3d 60 f5 08 bd 2a eb bd bc
       0.07256646 0.041379325 -0.033437133 -0.023183424
0002e0 fd 5f aa bd 59 01 29 bd 1a c5 ac bd 3f dc 8e bc
       -0.083190896 -0.04126105 -0.08436032 -0.017439006
0002f0 f7 c8 a5 3a e5 5d 92 3c 0a c8 c7 3b f8 01 24 3d
       0.0012648393 0.017867038 0.0060968446 0.04004094
000300 7c 79 a5 bc 75 cd b1 bd 0d dd 8a bd 28 d0 9d bd
       -0.02019953 -0.08681766 -0.06780443 -0.07705718
000310 38 ea 69 bd b5 76 79 bd 53 fc 7a bc 93 ae b9 bd
       -0.057108134 -0.060904223 -0.015318948 -0.090665005
000320 a1 13 c8 bd 6c af 0e bd df 19 b6 bd 29 2e 0f 3d
       -0.09769369 -0.034835264 -0.08891653 0.03495613
000330 74 8f 12 bd f0 61 27 3c 8f 3f 12 3d ea 8d 6f bd
       -0.03578134 0.010216221 0.035705145 -0.05848495
000340 fe 90 79 3d f1 2a 07 3d db ae 2c 3d f0 21 89 3d
       0.06092929 0.032999936 0.042158943 0.06695926
000350 5e e1 d2 bb 3f b5 30 3b a1 e0 9f bd 9e ae c8 bd
       -0.0064355573 0.00269635 -0.078065164 -0.097989306
000360 97 69 69 3b 9f 60 b7 bc c4 2b 1a 3e 85 ea db 3d
       0.0035615915 -0.02238494 0.15055758 0.107380904
000370 34 06 a7 3a 31 22 19 3d 7f b6 0e 3d 18 42 75 3d
       0.0012742938 0.037386123 0.03484201 0.059877485
000380 0e 16 54 bd 8c 2a 82 bd b4 87 2b bd bf 79 e5 3c
       -0.051778845 -0.063557714 -0.041877463 0.028012155
000390 07 0a d0 3c 13 ee 06 bd 2c bf e4 bc 6b d4 e8 3c
       0.025395406 -0.03294189 -0.02792319 0.028421601
0003a0 7b 21 93 bd bc 3d d2 3c 44 60 b3 3a ed 97 a7 3b
       -0.0718412 0.025664203 0.0013685306 0.0051145465
0003b0 2c 03 93 bd d4 ad 0b bb da 11 8d 3b c6 ea 3e 3d
       -0.07178339 -0.0021313326 0.0043051066 0.046610616
0003c0 74 91 56 3d 50 e2 55 bc 28 cd 57 3d 31 18 9c bd
       0.05238481 -0.013054445 0.052685887 -0.07621802
0003d0 ed 31 83 bc 6e 59 4d bc 78 fb 80 bd ff 46 cf 3c
       -0.016015017 -0.012533529 -0.06297964 0.025302408
0003e0 b3 d7 3f 3d 48 0a 22 bd e4 d2 7f bd 13 f8 fb ba
       0.046836566 -0.039560586 -0.06245698 -0.0019223712
0003f0 72 5c 2a 3d 30 55 2d bd a3 fd 24 bd e5 79 8d 3c
       0.04159207 -0.04231757 -0.04028095 0.017270038

fc1.bias f4 [64]
000000 7d e8 9a bd dd 70 58 3b f7 ab d1 bc 45 f0 84 3c
       -0.07563875 0.0033026256 -0.025594695 0.01622785
000010 99 f5 06 bd 11 18 91 3d f1 26 fa bc df bb 15 3d
       -0.032949064 0.070846684 -0.030536147 0.03655612
000020 6e 97 bc 3a 73 a4 3b bd 3b 40 ef 3b df 5f 1c bd
       0.0014388391 -0.045811128 0.007301358 -0.038177367
000030 b0 e5 63 3d 56 dc 75 3d 15 4a ed 3c db 5c ff bb
       0.05563897 0.06002458 0.02896599 -0.0077930517
000040 26 5c 49 3d bf de 5d bd ea 16 18 bd 4e e2 4b 3d
       0.049160145 -0.054167505 -0.037131228 0.049776368
000050 6a c8 52 3d f5 9e 3f 3c 79 93 af 3c 3f 8b 5c 3d
       0.05146066 0.011695613 0.021432625 0.053843733
000060 02 1a 5c bd d0 f8 e3 3c 59 1e 52 bd eb 0f b4 3c
       -0.05373574 0.027828604 -0.051298473 0.021980247
000070 63 a6 84 bc 07 02 65 bc c5 e9 47 3d 7d 5e 87 bc
       -0.01619262 -0.013977534 0.048806924 -0.016524548
000080 d1 87 28 3d cf 0c 9d 3b 24 d9 7a 3d 53 71 2e 3d
       0.04114515 0.0047927867 0.061242238 0.042588543
000090 67 f0 a6 bc ef f6 1a 3d 7e 75 eb 3c 7c d0 57 b9
       -0.020378305 0.03783315 0.028742548 -0.00020581664
0000a0 be 97 43 3b 05 36 d4 bc 33 71 01 bb b4 65 0c bd
       0.0029845084 -0.025904665 -0.001975131 -0.03427668
0000b0 3d a1 2a bd 19 b3 2b 3c 0c 67 a9 bc a8 c3 28 3d
       -0.041657675 0.010479712 -0.02067902 0.041202217
0000c0 10 c4 16 bd 36 6d f3 bb 1a 9f df bb a5 85 be bc
       -0.036808074 -0.0074287904 -0.0068243863 -0.023257086
0000d0 ab bb ac 3d 65 96 03 bc 30 8e 17 3a f0 74 52 3c
       0.08434232 -0.008031462 0.00057813805 0.012845263
0000e0 24 22 17 3d 23 3c f3 3c c5 c7 3a 3d a3 ef 8c bd
       0.036897793 0.029691761 0.04560067 -0.068816446
0000f0 bd 92 9c bc 10 ab ff 3c c0 d6 e3 3c 4a a3 a2 3d
       -0.019112939 0.031209499 0.027812362 0.07941301

fc2.weight f4 [18, 64]
000000 23 7f 1c 3e 8a 21 76 3d e2 f4 8d bc ba 10 d1 3c
       0.15282874 0.06009058 -0.017328683 0.025520671
000010 d1 77 d0 3c 5b 46 3c bd 67 af 99 3d 7f 4c f4 3d
       0.025447758 -0.045965534 0.075041585 0.11928653
000020 90 56 61 be 6a f7 80 3d a5 fc 98 3d cd 0a 19 be
       -0.22005677 0.062971905 0.07470063 -0.14945526
000030 f2 db cb bd ea 90 5d be e8 4b 33 be f2 13 e0 3c
       -0.099540606 -0.21637312 -0.17509425 0.02735326
000040 d4 2f 08 be 52 d9 1f 3d ec 2d 8d bd 56 f5 7c be
       -0.13299495 0.039025612 -0.068935245 -0.24702963
000050 0a 47 ff bd 3b 9d 14 bd 58 e3 0e be 06 9f 42 be
       -0.124647215 -0.03628276 -0.13953912 -0.19005975
000060 0d 88 e7 bd 0e f4 d0 bc db 93 21 be 00 e5 fb b7
       -0.113052465 -0.025507 -0.15779059 -3.0028168e-05
000070 d5 9d d8 3d c7 44 92 be 90 51 e5 bc 4e 90 58 bd
       0.10576979 -0.28568098 -0.027992994 -0.052871995
000080 96 21 aa 3d 87 53 68 be 63 48 f2 bd 1b 73 23 be
       0.08307187 -0.22688113 -0.11830213 -0.15961878
000090 cc 7f 9d bd bd 22 71 bd 43 90 57 bd d0 d4 5c be
       -0.07690391 -0.05887102 -0.052627813 -0.21565557
0000a0 2f de 3d be 96 ff 17 3e 7c 6a af bd b3 b0 f1 3d
       -0.18541788 0.14843592 -0.08565232 0.11801281
0000b0 9d 9e 7a 3d e8 08 2b 3e ab 31 08 3e 80 b8 eb 3d
       0.06118642 0.16702616 0.13300197 0.115098
0000c0 6a c5 d9 bd 5f f0 b6 3d 0f 90 37 3e 76 59 93 bd
       -0.10633357 0.08932566 0.17926048 -0.07194798
0000d0 b0 55 50 bc c3 c9 41 be 30 bc ea 3d b3 3d dc 3d
       -0.012715742 -0.18924622 0.11461675 0.10753956
0000e0 27 48 26 3d 7c 87 d3 3d 73 1d c5 bc f3 72 1b bd
       0.040596154 0.10328576 -0.024061894 -0.03795142
0000f0 8c 04 0c 3d 7a a1 ff 3d 8d 17 8e 3d 30 3b 21 be
       0.034184024 0.12481971 0.06938086 -0.15745234
000100 30 5f 09 3e b2 e3 18 3d 7e 53 47 be 71 c0 02 be
       0.13415217 0.037326522 -0.19465443 -0.12768723
000110 fb 4e af 3d df 80 10 3d 62 ea 61 3d 2e bf da 3d
       0.08559986 0.03527915 0.055155165 0.10680996
000120 ef 56 6e be 24 06 db 3d 0a a5 67 be c7 58 3b be
       -0.2327535 0.106945306 -0.22621551 -0.18295585
000130 f8 da 32 be 18 f2 e6 3d af 06 da bd c9 36 ea bd
       -0.17466342 0.112766445 -0.10645806 -0.11436231
000140 ee 09 80 be 6f fb e7 3c bc 0d fa 3b 30 e1 6f 3d
       -0.25007576 0.028318135 0.007631032 0.058564365
000150 05 d8 84 3d 62 3e 04 be 18 15 f7 bd a4 78 b9 bd
       0.06486515 -0.12914422 -0.1206457 -0.090562135
000160 b5 b8 e3 3c b1 0a 5a be 2b 8c c0 bd 24 ba 2e 3d
       0.027798036 -0.21293141 -0.09401735 0.042657986
000170 11 17 44 bd 86 43 2b 3d ef 5e e3 bc d0 41 7a 3d
       -0.04787356 0.041812442 -0.027755229 0.06109792
000180 c8 40 08 3e 56 de 75 be ef 2c 38 be 4e dc d6 3c
       0.13305962 -0.24010596 -0.17985891 0.026228096
000190 6b 10 37 be 12 ee 32 3e 57 17 f6 3d 5c 9d 8a 3d
       -0.17877357 0.17473629 0.120161705 0.06768295
0001a0 0a e5 4c be 34 19 e3 3d a4 90 51 bd 94 eb aa 3d
       -0.20009246 0.110887915 -0.05116333 0.08345714
0001b0 28 0b 7d 3d 94 70 51 be bd 9a 1e 3e 2d 74 05 bd
       0.061778218 -0.20453101 0.15488715 -0.032581497
0001c0 d0 58 f2 bd c4 9d 9f bd 27 69 87 bd 58 9a 8c be
       -0.11833346 -0.07793763 -0.06611853 -0.27461505
0001d0 79 4b 7d be b2 03 8a be 4e 7e 46 be ca d7 e3 3d
       -0.24735822 -0.26955944 -0.19384119 0.11125143
0001e0 2c 26 6b bd 93 d3 b9 bc 8e 51 30 3e 57 fa ac bd
       -0.05740945 -0.022683894 0.1721861 -0.08446186
0001f0 e6 93 db 3d 24 4d e5 bd 73 98 3d 3e 3e cf 1e be
       0.10721569 -0.11196354 0.18515186 -0.15508744
000200 02 d6 31 be 96 be 71 3d 5c df 88 be ae e7 d7 bd
       -0.17366794 0.059019648 -0.2673291 -0.10542236
000210 e8 13 1d 3e d1 da e1 3d 7d 8e f9 bd b8 22 d8 3d
       0.15339625 0.11028064 -0.121853806 0.10553497
000220 fb 0d 25 be 34 70 8e 3d 41 63 4d be 29 31 92 3d
       -0.16118614 0.06954995 -0.20057394 0.07138283
000230 ec 68 3d bc c7 f9 ca 3d 80 09 95 bd 1e 9e ca 3d
       -0.01156066 0.099109225 -0.072772026 0.0989344
000240 07 10 e9 bd 71 57 9f 3d 97 a7 45 3e ce 62 0a 3b
       -0.1138001 0.0778035 0.19302212 0.002111602
000250 bf 33 00 3e b1 20 ea 3d 18 cf 3d be 12 dd 7c bd
       0.1251974 0.11432017 -0.18536031 -0.061734267
000260 53 0f 80 3c ca 12 5c be 9e b8 73 3d 95 d4 75 be
       0.015632307 -0.21491542 0.059502237 -0.24006875
000270 36 d9 ea 38 79 59 fc 3c fe e3 7a 3d f4 89 3e 3e
       0.00011198448 0.030804383 0.061252587 0.18607312
000280 ff 56 5c 3d 37 88 1a bc e9 72 70 be f5 6c 9a 3c
       0.053793903 -0.00943189 -0.23481335 0.018850783
000290 68 79 ae 3b dc b8 1c 3e c9 a7 ee bd 49 69 e6 bc
       0.0053245313 0.15304893 -0.11653096 -0.028126376
0002a0 62 8f 41 be 7a 80 0f be a6 60 a6 3d 73 13 c9 3d
       -0.18902352 -0.14013854 0.08123903 0.09818163
0002b0 53 4c d8 3d 1a 57 44 be f8 ab 16 be 59 ce 38 be
       0.10561433 -0.19173852 -0.14714038 -0.18047465
0002c0 0b 05 79 be 3a 08 a9 bd 19 66 6a 3e 1d 49 6b bd
       -0.2431833 -0.08253522 0.2289051 -0.057442773
0002d0 ed 4e 86 be 0a 10 86 be 80 57 05 be 6c 0a f1 3d
       -0.2623209 -0.26184112 -0.1302166 0.11769566
0002e0 4b fb 15 3c 1f ad 19 3e 16 6d 12 be 47 29 0d 3e
       0.009154151 0.15007447 -0.14299425 0.13785277
0002f0 b2 3b 01 3e 2b 7b 89 bd 07 50 2c be 57 44 6d be
       0.12620428 -0.067129456 -0.16827403 -0.23170601
000300 c5 2f 22 3d dd bb a4 bc 30 c4 5b be a1 2f ec bd
       0.039596338 -0.020109111 -0.21461558 -0.11532522
000310 f8 af 72 be 34 41 92 be 1a 84 1c 3d f6 79 1e 3e
       -0.23699939 -0.2856537 0.03821192 0.15476212
000320 98 1b 3b 3d 70 75 be 3d a6 36 80 be ac 9e b2 3d
       0.045680612 0.09299743 -0.25041693 0.087216705
000330 19 44 1d bd b2 3e ed 3d f9 72 b4 3c 3e 2f 2a bc
       -0.03839502 0.11584224 0.02202748 -0.01038724
000340 37 48 8b be 9b 7f d4 3d 91 0b 33 3e 63 9f d4 3d
       -0.27203533 0.10375901 0.17484881 0.10381963
000350 39 87 61 be e6 83 03 be dc c1 d7 3d 77 3b aa 3d
       -0.2202424 -0.12843284 0.105350226 0.08312123
000360 6a 94 dd bc d8 11 e0 bd bb 71 19 3e 8c 3c fa bd
       -0.027048308 -0.109409034 0.14984791 -0.1221858
000370 ff b2 9c 3d 5e af 23 3e 37 4c 9d bd c4 15 98 be
       0.07651328 0.15984866 -0.076805525 -0.29704106
000380 37 8d fe bc f4 9e 1d be 4b 4c a6 3c 04 fc 59 3d
       -0.031073196 -0.15392667 0.020300051 0.053218856
000390 da a7 15 3e 1b e0 50 3c 03 82 0c 3e 01 3b 3c be
       0.14614812 0.012748743 0.1372147 -0.18381883
0003a0 c5 bc a3 3d c9 e7 17 3d e3 fe c5 3c 57 04 25 3d
       0.07994989 0.037086282 0.024169391 0.040287342
0003b0 00 15 e4 3d 84 2d d1 bd bc 25 0b be 63 16 b2 3d
       0.11136818 -0.102137595 -0.13588613 0.08695676
0003c0 bc 32 58 3d 8d 28 9f bd 12 25 0f be f9 c8 06 3e
       0.05278276 -0.07771406 -0.13978985 0.13162602
0003d0 f7 60 6f be 6d c1 5b be 75 38 62 bd 41 23 c7 3d
       -0.23376833 -0.21460505 -0.055229623 0.09723521
0003e0 67 6a 43 3e a2 48 9e 3d 39 0f 6a be 1d 61 ca 3d
       0.19083558 0.07728697 -0.2285737 0.09881804
0003f0 1a b9 05 3e 4e 67 64 be 85 72 21 be aa cb 87 be
       0.13058892 -0.22305033 -0.15766342 -0.2652257

fc2.bias f4 [18]
000000 79 92 b3 bd 50 67 4e 3d c3 e3 a3 3c 63 c5 1c bd
       -0.08768172 0.050391495 0.020006066 -0.03827418
000010 32 39 9b 3d db 06 c5 3c 53 12 8e bd 84 e4 b8 3b
       0.075792685 0.02405112 -0.06937089 0.0056424756
000020 48 8e dc 3d d8 1a a0 bd 6b 70 44 3c 7d c0 9c 3d
       0.107693255 -0.0781762 0.011989693 0.07653902
000030 c7 36 95 3d 52 ac a8 3d 01 6f 01 3d c3 70 58 bd
       0.072858386 0.082359925 0.031600002 -0.052841913
000040 82 56 88 3d cc f2 b4 bd
       0.06657125 -0.08835372
