ROB501/rob501_fall_2020_assignment_05/best_model_45.pth (torch, 118040 bytes, 12 tensors)

conv1.weight f4 [16, 3, 9, 9]
000000 e4 ce 91 3d 9b 96 a3 3d 8e d7 8d 3c 1e 03 a6 3d
       0.071195394 0.0798771 0.017314699 0.08106063
000010 36 4d 9c 3a 5d b1 08 3d 2b f2 84 bc 00 2e 79 3d
       0.0011924866 0.03337227 -0.016228756 0.060834885
000020 af d2 97 3d e0 ac 08 bd 4d de 8e 3d e0 d9 6e 3d
       0.074132316 -0.03336799 0.06975994 0.05831325
000030 39 e3 67 3d 48 70 86 3c 66 df e6 3c 2a 9c 40 bc
       0.05661318 0.016410962 0.028182697 -0.011755982
000040 dd 5e 4d 3d 51 14 de b9 bd 24 60 bd 26 4f a1 3c
       0.050139297 -0.00042358277 -0.054722536 0.019691061
000050 ba a3 95 bc 0c 48 23 bc 06 21 14 bd 4c ab 4d 3d
       -0.018266547 -0.009965908 -0.036164306 0.05021219
000060 e4 ac 5a bd 8a c5 39 bd 3d c9 3f bd 8f ea 5c bd
       -0.053387538 -0.045354404 -0.046822775 -0.05393463
000070 18 54 10 bc 31 04 81 bd 2a a3 69 3d b6 3c 88 bd
       -0.008809112 -0.062996276 0.05704037 -0.06652205
000080 a2 f2 24 3d da f2 2c 3c 78 97 f2 bc 66 9b e8 3c
       0.040270455 0.010555947 -0.029613242 0.028394412
000090 30 0a 88 bb c1 3c 3d 3d 3c 60 0f bc 0a 32 1d bd
       -0.004151605 0.046200518 -0.008750971 -0.0383778
0000a0 34 ba 02 ba 30 25 c8 bc 52 ec e8 3c ba f9 3e 3d
       -0.0004986853 -0.024431795 0.028432999 0.046624877
0000b0 ba 2f 41 3c 8e 93 cd bc 34 62 f3 3c 36 3b 7a 3c
       0.011791164 -0.025094774 0.029709913 0.015272906
0000c0 70 67 09 3d 45 3e 87 bd ac 93 8a bd 22 e0 d0 bc
       0.03354591 -0.06603674 -0.067664474 -0.0254975
0000d0 2c 98 81 bd 9b af 3e 3d e1 70 86 3c a0 74 a2 3c
       -0.063278526 0.04655419 0.016411247 0.019831002
0000e0 8d 18 88 3c b8 6e 98 ba 84 b9 0d 3d 28 2b 4c bd
       0.01661327 -0.0011629676 0.03460075 -0.049845845
0000f0 18 21 bf 3b b5 7f 1c bd 12 b6 be 3c 39 50 40 bd
       0.0058328025 -0.03820773 0.023280177 -0.046951506
000100 7b 0c a0 3b fc 20 00 bd 9e 9d 60 3d 89 1a 46 bd
       0.0048843003 -0.031281456 0.054837815 -0.04836515
000110 28 42 40 bd 56 c1 00 bd ed a7 9f 3d 78 92 a8 3c
       -0.04693809 -0.03143438 0.07795701 0.020577654
000120 4d 47 96 3c 74 5e c3 bd 34 c1 b3 bd 4f df 4e bd
       0.018344546 -0.095395 -0.08777085 -0.050505932
000130 3c 56 4d bd a2 92 a5 3c 54 65 f9 3c 73 0f 3a 3d
       -0.050131068 0.020211522 0.030443825 0.04542489
000140 ac 89 6f bc e8 d2 17 bd 64 39 2d 3d 48 94 85 bc
       -0.014620226 -0.03706637 0.04229106 -0.016306058
000150 1e ee 20 3d 95 c3 b3 bc 7a 23 3a 3d 6b 3e 51 bd
       0.039289586 -0.021943847 0.04544399 -0.051084917
000160 2a dc c6 bc 49 5e a5 3c 4d 70 8d 3c 3e f4 a8 bc
       -0.024274904 0.02018656 0.017265463 -0.020624276
000170 87 80 82 3d a6 05 10 3d 91 52 46 bd a3 a7 2e bd
       0.06372171 0.035161637 -0.048418585 -0.04264034
000180 10 6f 68 3d a3 12 24 bd 4b 18 35 bd e8 82 c6 bd
       0.056746542 -0.040056836 -0.04421262 -0.09692937
000190 dc 7b 4d bd b0 69 28 3b a6 76 03 bd 28 72 86 bd
       -0.05016695 0.002569776 -0.032095574 -0.06564742
0001a0 a1 a9 67 bc 83 92 72 bd 41 90 a6 bd 7e dc 90 bd
       -0.014139564 -0.059221756 -0.08132983 -0.070733055
0001b0 6e 8a aa bd 53 52 8e bd cf a1 51 3d 31 93 3d bc
       -0.083271846 -0.06949296 0.051179703 -0.011570738
0001c0 34 30 23 bb eb 01 b3 bd 42 e9 6d bd b7 eb 1b bd
       -0.0024900557 -0.087406 -0.05808378 -0.038066592
0001d0 40 e5 fe bb ec de 8a bd 2c 7d 28 bd ba 54 7b bd
       -0.0077787936 -0.067808 -0.041135 -0.0613601
0001e0 79 e2 e7 bc 0e 29 4c bd 58 fb e8 bc 7c 06 5f bd
       -0.028306233 -0.04984384 -0.028440163 -0.054449543
0001f0 44 e9 88 bd 73 d3 92 bd 69 eb a3 bc e1 39 8a bd
       -0.06685117 -0.07169237 -0.020009713 -0.06749321
000200 25 48 28 3d 1f 9c fe bc 27 69 c8 3c 9f 5c 68 3b
       0.041084427 -0.031080304 0.024464203 0.0035455597
000210 1c b1 82 bd fb 64 ae 3c 5e 43 16 bd 7e e4 0d bd
       -0.06381437 0.021288386 -0.03668534 -0.034641735
000220 ab c1 82 bd 43 9a 8b bd 3d c9 fc 3a 61 0f e3 bc
       -0.063845955 -0.068165325 0.0019286048 -0.027717294
000230 20 c6 67 3b 9e a9 82 bd d6 57 25 3d 72 99 7a bd
       0.0035365894 -0.06380008 0.04036697 -0.061181493
000240 0e 69 22 bd ff 7e d7 bb 5a b5 b4 3b 1e 9d 20 3d
       -0.03965097 -0.0065764184 0.005514783 0.03921234
000250 0c c2 32 3d 71 89 82 bd a1 c6 7e 3c 89 3c 9f bc
       0.04364209 -0.06373871 0.0155502865 -0.019438045
000260 fb d1 61 bc 66 24 c2 bd 7b e8 ec 3b 3e 8b 94 bd
       -0.013782973 -0.09479599 0.0072298623 -0.07253121
000270 06 4f 07 3d 47 29 28 3c 95 db a6 3b f2 76 1f bd
       0.033034347 0.010263748 0.005092094 -0.038931794
000280 65 b0 20 3d e0 ce 87 3c d4 f9 92 3b c4 97 67 bd
       0.039230723 0.016578138 0.0044853482 -0.05654122
000290 d8 d9 e3 3c 16 7c cd bc 3c 0e 38 bd f0 0f 2d 3d
       0.027813837 -0.025083583 -0.04493545 0.042251527
0002a0 8f 14 76 3b 41 44 19 bd 24 82 2d bd 49 3a 2f 3b
       0.0037548875 -0.037418608 -0.04236044 0.0026737622
0002b0 62 7a e8 3c 24 97 65 3a 29 5d 3e bd 1b 35 3d bc
       0.02837867 0.00087581784 -0.046475563 -0.011548306
0002c0 6d 53 30 bd 02 33 94 3c 51 19 14 3d 1d 83 91 bd
       -0.04304831 0.018090729 0.036156956 -0.07105086
0002d0 32 bf 35 3c d8 03 27 3d 89 81 51 3c 4e 6e b5 bc
       0.011092948 0.04077515 0.012787231 -0.022147324
0002e0 b7 07 05 3d 74 81 34 3d d4 e1 02 3d af 53 ba bb
       0.03247806 0.04406877 0.031953648 -0.0056862454
0002f0 60 08 c7 bc d6 3b 00 3c 64 bc 5c bc 69 d4 62 bb
       -0.024295986 0.007826766 -0.01347265 -0.003461147
000300 d4 b2 05 3d de 6f 56 3d 3a 25 24 bc 1d 20 25 bc
       0.032641247 0.05235278 -0.010018641 -0.010078457
000310 8b 69 8f 3c a0 b2 75 3a 5e fc ee 3c 23 1c d5 3c
       0.017506381 0.00093726255 0.029173072 0.026014393
000320 e5 b9 61 bd f4 9a 94 bc 2a 66 66 3d be da f9 3c
       -0.055108923 -0.018140294 0.056249775 0.030499812
000330 23 c9 04 3c 72 4c 9f bc 92 e0 2b bd 84 b1 7b bc
       0.008104595 -0.019445632 -0.041962214 -0.015362147
000340 1b b7 89 bc d9 6d 16 3d 69 72 4a 3d 76 7c 1d 3d
       -0.016810944 0.036725853 0.049425516 0.038448773
000350 3d 58 5e bd 2f 91 a8 bc c8 9e 15 38 69 ee 97 3d
       -0.05428337 -0.020577041 3.5672245e-05 0.0741852
000360 87 eb e2 3c 64 57 33 ba 9c 30 53 3d 78 64 69 bc
       0.027700199 -0.00068413303 0.05156003 -0.014245145
000370 79 e3 f3 bc f3 86 6e 3d b5 86 68 bc 8f 17 3f 3c
       -0.029771553 0.058234166 -0.014192273 0.011663332
000380 d5 b5 22 bd 92 a5 28 3d 56 08 4e 3d 18 1f 0d 3d
       -0.03972419 0.041173525 0.05030092 0.03445348
000390 62 30 ab bc a1 ab 51 bd 42 ae ec bc 61 aa 9f 3d
       -0.020897094 -0.05118907 -0.028891686 0.07796169
0003a0 d6 93 7a 3d 6e de 9b 3d 2c 58 76 3c e2 3e ef ba
       0.061176144 0.076107845 0.01503567 -0.0018252993
0003b0 6d 00 b1 3b 88 c6 f9 bc fa 07 35 bd 2b ea 3f bd
       0.005401662 -0.030490175 -0.04419706 -0.04685418
0003c0 12 ab 47 3d ab 4c b7 bc ce 4f e7 3b b6 18 ec bc
       0.04874713 -0.022375425 0.007059074 -0.028820377
0003d0 8e a7 af 3b db 31 9e bc d1 7b f3 bc e5 13 d8 3c
       0.0053605502 -0.019310882 -0.029722126 0.026376674
0003e0 0b 2e ad bc 69 13 49 3d 5a 58 0e bd 17 54 91 bd
       -0.021140119 0.049090777 -0.034752227 -0.07096117
0003f0 f0 1f 0a bc 95 b1 0a bd b8 4a e6 bb d2 95 87 bd
       -0.008430466 -0.03386076 -0.00702795 -0.06620373

conv1.bias f4 [16]
000000 98 c6 d2 bd 8c 10 20 be 88 2a 2f be db cb 36 be
       -0.10291785 -0.15631312 -0.17106068 -0.17851202
000010 99 2f e3 bd 34 6e d2 bd dd 73 10 be 6f 20 42 be
       -0.11093063 -0.10274926 -0.14106698 -0.18957685
000020 c9 f7 3e be b3 12 1e be b3 fa 82 be 85 21 24 bd
       -0.1864921 -0.1543682 -0.25581893 -0.04007103
000030 23 9b 4a bd 92 4c d3 bd 0b 2c 39 be 29 27 dd bd
       -0.049464356 -0.10317339 -0.18083207 -0.10798485

conv2.weight f4 [16, 16, 9, 9]
000000 b6 6f cb bd df a2 81 bd 61 5b 9a bb b7 9a 40 3a
       -0.099334165 -0.06329893 -0.0047106002 0.0007347273
000010 11 32 8f 3c d8 67 bb 3c 96 7e 90 3d 99 61 86 3d
       0.017479928 0.022876665 0.07055394 0.06561584
000020 ea 24 61 3d d5 89 c6 bc b6 09 d6 3c f3 29 2d bc
       0.054966845 -0.024235645 0.026127677 -0.0105690835
000030 51 67 49 bc 5d fd 04 bd ae ef 2b bd 9f 61 32 3c
       -0.012292699 -0.03246819 -0.041976623 0.0108875325
000040 cd 33 99 3c 9e e7 f6 3b 5d dd b4 3b 88 28 1b bd
       0.018701458 0.007534935 0.0055195526 -0.03788045
000050 44 db 2d bc 3a 77 2a bd 33 83 bc bc d6 cf f8 bc
       -0.010611359 -0.04161761 -0.02301178 -0.030372541
000060 cc 6e 22 bd 44 45 08 bd 38 8a 33 bc 88 5f 8e bc
       -0.039656445 -0.03326918 -0.010958247 -0.017379537
000070 25 f9 1f bd 86 95 f1 3c cf 98 a9 3c a4 bb 40 3d
       -0.039055962 0.029490244 0.020702748 0.047053948
000080 fc 48 38 bb 31 5a df 3c 2b bf 3a 3d 59 a0 d0 3c
       -0.0028119674 0.027264686 0.04559247 0.025467085
000090 cf 58 8e bd ba 1a 13 bd a3 85 ae bc 57 67 20 bd
       -0.06950533 -0.03591416 -0.021303957 -0.039161053
0000a0 77 65 82 3c 01 0c 28 bc 51 c3 84 bc 8b b0 86 bc
       0.015917523 -0.010256768 -0.016206415 -0.016441604
0000b0 b6 0f 16 ba ee e3 9b bc 01 e5 a9 bc e1 c8 81 bd
       -0.0005724387 -0.019029584 -0.02073908 -0.06337143
0000c0 90 a1 cb bc 6c 39 b5 ba f2 48 08 3b b1 a0 81 bc
       -0.024857312 -0.0013826317 0.0020795432 -0.015823694
0000d0 64 ae 4c bd a6 3e cf bc 28 f8 17 3d be 7c e6 3c
       -0.049971 -0.025298428 0.037101895 0.028135654
0000e0 c7 f6 bf 3c 9f f4 bd bc 84 97 62 bb 6e f5 53 bc
       0.023433102 -0.023187933 -0.0034575174 -0.012936933
0000f0 45 f9 ab ba ae b1 bd 3c 74 69 23 3b a8 00 c6 3c
       -0.0013120553 0.023156013 0.002493468 0.024170235
000100 f4 83 b1 bc 24 7d ea bb 80 a0 32 bb 2d 66 6c 3c
       -0.021669365 -0.007156031 -0.002725631 0.0144286575
000110 e4 23 ea bc a8 fa 05 bc f8 91 f7 bc 45 fe f0 3c
       -0.028581567 -0.008177437 -0.03022097 0.02941812
000120 35 bd 11 bc d3 ab bb bc b4 5c d8 bc 22 d1 39 bc
       -0.008895208 -0.02290908 -0.026411392 -0.011341365
000130 6d f9 3f 3b 03 c6 9e bb 5d 53 f1 3b 3e 65 e8 3b
       0.0029292956 -0.004845382 0.007364674 0.007092147
000140 95 ca 35 bc 85 dc a5 bc ae 76 72 bc ba 4e bf bc
       -0.011095663 -0.020246753 -0.014798803 -0.02335297
000150 9e ba 95 3c 63 9d 85 bc 39 9e ea bc ba b8 f6 3b
       0.018277463 -0.0163104 -0.0286399 0.0075293453
000160 ba 68 05 3d 5f e5 25 3d 16 e1 4d 3c bb 94 8e 3c
       0.03257058 0.04050195 0.012565872 0.017404905
000170 a3 ff 1b 3c 02 a9 6d bc 24 32 db 3a 78 5b 8b bc
       0.009521398 -0.014505627 0.0016723317 -0.01701139
000180 b9 c0 d0 3c 53 bb 14 3c 33 dc 83 bc 29 83 8a 3c
       0.025482522 0.009077865 -0.01609621 0.016908245
000190 ef 38 16 bd c9 ce 36 bd 92 3f be bc 44 01 ca bc
       -0.03667539 -0.0446308 -0.023223672 -0.024658807
0001a0 3d 82 fe bc b7 6d 90 bd 88 74 8b bd 9a 41 42 bc
       -0.031067962 -0.070521764 -0.06809336 -0.011856461
0001b0 07 c9 0f bd 68 3b 6f bd 87 20 3b bc 77 43 8d 3c
       -0.035103824 -0.058406264 -0.011421329 0.017244084
0001c0 e7 63 01 3d cd 12 a0 bc c8 13 c5 3c 34 ca 89 bb
       0.031589415 -0.019540215 0.024057284 -0.0042050127
0001d0 7c 01 fb 3a cf c2 97 3c d3 f9 91 bd d7 f1 0c bc
       0.0019150223 0.01852551 -0.07127728 -0.008602581
0001e0 e0 27 c0 bc 0e 8d a1 3c 1b 62 04 3d f1 c9 10 3c
       -0.023456514 0.01972058 0.032320123 0.008837209
0001f0 c0 3a 3e bc af ae 58 bb 4d 5a 19 bc 68 bb ea bc
       -0.011610687 -0.0033063104 -0.009359908 -0.028653815
000200 b9 28 15 bc c1 9b e3 bc 5f 46 90 bc e5 74 b5 bb
       -0.009103947 -0.02778423 -0.01761168 -0.0055376166
000210 38 06 d1 bc a0 b9 7a bc 83 b3 1e 3c 01 fd 58 3d
       -0.02551566 -0.0153030455 0.009686354 0.05297566
000220 f5 2c 4e 3d aa 97 49 3d 16 46 37 3c df 14 66 3c
       0.050335843 0.049216904 0.011186143 0.014043062
000230 4f c0 27 3c db 10 00 3b d6 8f 82 bc fd c2 97 3c
       0.010238721 0.0019541297 -0.015937727 0.018525595
000240 17 65 c2 3b bf fe 89 3c 90 3f 23 bb 90 56 a6 3c
       0.005932461 0.016845105 -0.0024909712 0.020304948
000250 34 2d bc bc 11 e9 40 3c 1a 66 a7 bb 76 5f 88 3c
       -0.022970773 0.011774317 -0.005108607 0.016647082
000260 61 82 fa 3c 8e e7 0f bd c2 dd 2b bd 87 11 1d bd
       0.030579748 -0.035132937 -0.04195953 -0.038346794
000270 60 dc 0c bd 96 d8 19 bc 1d 7b bd ba 68 d6 22 bc
       -0.034389853 -0.009390017 -0.0014456246 -0.009938814
000280 ac 30 32 3c fa 09 f5 bc 67 eb 48 3d 0a e7 9f 3c
       0.010875862 -0.029911984 0.049052622 0.019519348
000290 04 af 83 3c 83 f2 1f 3d 93 29 bf bb 1f 80 09 bd
       0.016074665 0.039049637 -0.0058338135 -0.03356945
0002a0 27 4c 02 bd e2 19 28 3a f6 1b d0 3c 32 5b 27 bd
       -0.031810906 0.0006412548 0.025403958 -0.040858455
0002b0 41 24 0a 3c 6e 6a 12 bd 6d f2 d1 3a 0a 63 ce 3c
       0.008431495 -0.03574603 0.0016017683 0.02519371
0002c0 c8 01 5a 3d 8e db 61 3a 76 94 05 3c a2 72 bb 3c
       0.053224355 0.0008615785 0.008153072 0.02288181
0002d0 7c 7a 0d bc 87 50 01 bb 99 4b 20 bd 3c cf bc bc
       -0.00863516 -0.0019731836 -0.039134596 -0.023048036
0002e0 d8 ec 75 bd 3d 90 0f 3c 90 2a 8f 3c 2b 6f af 3c
       -0.060040325 0.008762416 0.01747635 0.021415314
0002f0 eb f5 1a 3d 73 01 3c bd 66 47 09 bc 0a 0d 95 bb
       0.037832182 -0.04589982 -0.008378839 -0.0045486735
000300 08 65 bb 3a 40 17 fd 3c 59 c8 e3 3c a4 07 39 ba
       0.0014297077 0.030894876 0.027805494 -0.00070583285
000310 65 e2 0e 3c 1f 74 d5 bc 5f ea 17 bd 82 56 89 3c
       0.008720969 -0.026056347 -0.037088748 0.016764883
000320 eb 91 c1 bc 7d 13 93 3c 4c ff 76 3c 60 6a 06 3b
       -0.02362915 0.017953629 0.015075516 0.0020510182
000330 ca 41 44 3c d8 36 cc 3c 6d 41 a3 bc ef cf d5 3c
       0.011978576 0.024928495 -0.019928658 0.026100127
000340 6a 23 b9 3c 29 c5 a2 bc 52 44 ae bb d5 64 d6 3c
       0.022599895 -0.019869404 -0.005318203 0.026171127
000350 d2 ea ad 3c d6 f8 2e 3d d7 89 1e bb d9 4f 3a 3c
       0.021230135 0.042717777 -0.0024191046 0.011371576
000360 19 55 6c 3d e7 fe d9 3c 30 2f 39 b9 61 ae 15 3d
       0.057698343 0.026610805 -0.00017660554 0.036543254
000370 11 e4 09 bd 53 76 a2 bd 6a 70 fd bb c5 58 8a bc
       -0.033664767 -0.07932725 -0.007734348 -0.016888032
000380 f1 79 c6 bc 93 cb ee bc 5e db f7 bc d4 61 2a bd
       -0.024228068 -0.029149806 -0.03025597 -0.041597202
000390 2d 93 c8 bc 03 48 c8 bb b2 f5 3a bd 8f 7d 08 bd
       -0.024484241 -0.0061121 -0.04564447 -0.033322867
0003a0 ed 95 b9 bc 07 cb df 3b 60 23 c4 bc 79 d0 4e bd
       -0.022654498 0.0068296227 -0.02394265 -0.050491784
0003b0 7a a6 27 3b a3 fb 81 bd 8d dc 03 bd f7 89 9c bc
       0.0025581405 -0.06346824 -0.032192755 -0.019108756
0003c0 80 70 fd 3b ee bf 3c bb 57 82 db 3c d9 20 17 bb
       0.0077343583 -0.0028800922 0.02679555 -0.002306035
0003d0 c9 2c 7a 3c d6 2a cf 3c 05 e4 23 3d f0 b8 2e bd
       0.015269467 0.02528898 0.04001238 -0.04265684
0003e0 34 05 8f bd ef 10 48 bc 81 41 11 3d dd d4 9e 3c
       -0.06983414 -0.0122110685 0.03546286 0.01938861
0003f0 af a5 01 3d 33 28 3b 3b 79 cb b5 3c af 20 4d bc
       0.03165215 0.0028557896 0.02219175 -0.012519999

conv2.bias f4 [16]
000000 26 95 3e 3c 88 f6 3e 3c 57 76 61 3c ff 14 f4 bb
       0.011632239 0.011655457 0.013761125 -0.007448792
000010 1d a1 3a 3b 3b 8c 2d bd 19 19 c5 bb 25 ec f7 bc
       0.0028477379 -0.042370062 -0.0060149548 -0.03026397
000020 6e 9a 51 3c aa d4 e4 bc 9d 65 59 bc a3 fb 0a 3d
       0.012793167 -0.027933437 -0.013268855 0.033931386
000030 30 e5 29 bc db bc 5f bd 40 44 9b 3c 3c ab 19 bc
       -0.010369584 -0.054623466 0.018953443 -0.009379204

batch2.weight f4 [16]
000000 8f 28 af 3f c7 07 a5 3f db b3 a5 3f 7e 89 aa 3f
       1.3684253 1.2892998 1.2945513 1.3323209
000010 7a de 9d 3f bf 74 a5 3f 89 00 a3 3f bb 61 ad 3f
       1.233352 1.2926253 1.2734538 1.354545
000020 ae 41 aa 3f 38 81 af 3f b7 e4 a6 3f 8c 10 aa 3f
       1.3301294 1.371131 1.3038548 1.32863
000030 e2 72 af 3f 15 1d ae 3f 3f 53 aa 3f a0 1b ac 3f
       1.3706934 1.3602625 1.3306655 1.344593

batch2.bias f4 [16]
000000 5b 85 bd 3d 3e aa 30 3d 0c 7a 6e 3d 85 73 ab 3d
       0.09253951 0.043131106 0.05822186 0.08371643
000010 14 60 e1 3d ee 18 36 3d 4a 1d b9 3c b4 fd 7d 3d
       0.110046536 0.04445737 0.022596974 0.06200953
000020 55 eb e3 3d cc 65 9c 3d c1 2f 60 3c 88 d2 26 3d
       0.111288704 0.07636604 0.01368326 0.040728122
000030 4c c1 06 3e 65 72 4b 3d 8d f5 79 3d f9 53 55 3d
       0.13159674 0.049669642 0.06102519 0.052082036

batch2.running_mean f4 [16]
000000 09 ea c7 c2 e9 00 89 43 a7 0b 94 42 37 cb b2 42
       -99.9571 274.0071 74.02276 89.396904
000010 d8 63 8d 42 d8 03 d6 42 ac 8e 8e c3 b0 59 d0 41
       70.69501 107.00751 -285.11462 26.043793
000020 fa a5 97 42 2d 2e 82 c2 e6 a0 4f c3 2c 0a 5b 43
       75.82417 -65.09019 -207.62851 219.03973
000030 cf 5c e8 c1 7e e9 a1 c2 70 a9 0d c2 f4 c8 c3 41
       -29.045317 -80.95604 -35.415466 24.473122

batch2.running_var f4 [16]
000000 2a 2f 8a 45 ac 17 16 46 c9 7f bf 45 67 c9 bd 45
       4421.8955 9605.918 6127.973 6073.1753
000010 ea 11 b9 45 23 2b a1 45 2e e3 42 46 6d 6e bc 45
       5922.2393 5157.392 12472.795 6029.803
000020 09 3c ba 45 b3 25 b8 45 3c ce ea 45 79 0e d3 45
       5959.5044 5892.7124 7513.7793 6753.809
000030 72 8c 96 45 a8 02 cb 45 4f 73 f0 45 78 3c c0 45
       4817.5557 6496.332 7694.4136 6151.5586

fc1.weight f4 [16, 224]
000000 00 6f 6f bd f6 6d 3f bd 33 a2 bf 3c 62 24 a1 3d
       -0.058455467 -0.046735726 0.023392772 0.078682676
000010 b3 5a f3 3d d6 a3 58 3d f0 c8 5a bd 97 ce 7b 3d
       0.11882534 0.05289062 -0.053414285 0.061476316
000020 89 4b aa 3d 77 89 f5 bc 21 d9 b7 3d 9e 38 90 3d
       0.083151884 -0.029972775 0.08976961 0.07042049
000030 e9 dd b3 3c 63 9b 0e bd 31 06 36 be 0b a6 92 bd
       0.021956401 -0.034816157 -0.177758 -0.071605764
000040 83 73 e6 bd e7 f3 cb bc 32 63 b1 bd 23 03 36 bd
       -0.11252501 -0.024896575 -0.08661498 -0.044436585
000050 f7 3c fa bd 84 52 87 3c f8 27 9f 3d 46 21 89 3c
       -0.12218659 0.016518839 0.07771295 0.016739499
000060 8e e2 d8 3d 83 1c 18 3d 31 83 a4 3d 51 7e 4a 3d
       0.10590087 0.037136566 0.08032835 0.04943687
000070 31 f4 d0 bd 5c 27 0b be fe f7 51 bd 3b ac 99 bd
       -0.10202826 -0.13589233 -0.051261894 -0.075035535
000080 7f 3f 58 bc 23 2c 72 bd 12 9d 2c 3e 4b 3e 1a 3e
       -0.013198732 -0.059124123 0.16856793 0.15062825
000090 1b a3 e7 3d e8 a4 91 3c 3e 87 b7 bd 2d 3e d2 bc
       0.11310407 0.017778829 -0.08961342 -0.025664413
0000a0 fc 50 a2 bc 23 f2 0a bd 89 62 ee 3c 2e 86 7c bb
       -0.019814007 -0.033922326 0.02909972 -0.0038532126
0000b0 d5 fb 68 bb 84 b3 e8 bd a5 44 54 bd 1a 1e 31 3d
       -0.0035550494 -0.11362365 -0.051823277 0.043241598
0000c0 e3 42 c6 3d 4b 9a 31 bd c6 7d 23 3d bb b9 85 3b
       0.096807264 -0.043360036 0.03991487 0.0040809787
0000d0 dd 5d 74 3c 2c 35 1a bd ce fc 91 bc 96 4a 2c 3d
       0.014914957 -0.037648365 -0.017820742 0.04206332
0000e0 7b a8 0e bd d4 a0 c3 bc 70 ba d0 bd 49 54 6a bd
       -0.034828644 -0.0238804 -0.1019181 -0.057209287
0000f0 30 1e 98 bd 1f da 13 be 93 ef 16 3d e1 eb 17 3d
       -0.07427633 -0.14438675 0.03684957 0.037090186
000100 b7 fd 2c bd 0e e6 3a bd 04 a0 9c bd 1d 3c 3d bd
       -0.04223415 -0.045629553 -0.07647708 -0.046199907
000110 b9 f3 48 bd a0 92 29 3d 4b 1f 56 3d 6a 2b b3 3d
       -0.049060557 0.041399598 0.052275937 0.08748515
000120 c8 fb 51 3d f3 8b e5 bd 56 96 27 be c1 52 da bc
       0.051265508 -0.11208334 -0.16365942 -0.026650788
000130 23 0a 11 bd d0 54 9a 3d 22 a0 41 3e 2d 94 06 3e
       -0.035410058 0.07535708 0.18908742 0.13142462
000140 77 70 b0 3d 48 8f 63 3e 41 41 0f 3e a3 94 14 3e
       0.08615201 0.22222626 0.13989736 0.14509825
000150 89 d0 1d 3e 08 70 aa 3d 39 49 9b 3d 3f aa 9e 3d
       0.15411581 0.083221495 0.075823255 0.077473156
000160 b1 89 4e 3d 4e 82 44 bd 73 d4 ac 3c 7a da f7 bd
       0.05042428 -0.04797583 0.021097397 -0.12102218
000170 9c 7a 13 be 2e 64 38 be df d2 60 be 6e 12 31 be
       -0.1440224 -0.18006966 -0.21955441 -0.17292187
000180 36 a0 1a be c1 1a 12 be f8 bc d6 3d 63 73 6d 3d
       -0.15100178 -0.14268018 0.10485262 0.05797137
000190 7c 85 d9 3d f6 41 88 3d c7 92 d5 3b 34 bf fb bd
       0.10621163 0.06653206 0.0065177414 -0.122923285
0001a0 10 c3 6e be db 1a 2c be 3b a9 57 3a 8b 2c a4 bd
       -0.23316598 -0.1680712 0.00082268164 -0.080163084
0001b0 24 2b be bd d3 02 ea ba 49 40 01 bd 40 46 42 bc
       -0.09285572 -0.0017853625 -0.031555448 -0.011857569
0001c0 4c 84 a8 3c 46 51 4a bc a7 86 f0 3c c9 da 2a bb
       0.020570897 -0.012348479 0.029361082 -0.0026070348
0001d0 97 54 9c 3d d7 f9 31 3a 17 56 7b bd c2 a3 29 bd
       0.07633322 0.0006789243 -0.0613614 -0.041415937
0001e0 af bf 32 bd ab 9e 54 3d 9d 52 b5 3d 5e de 39 3d
       -0.043639835 0.05190913 0.08853648 0.04537808
0001f0 d1 ae ce 3c 35 17 2d 3d 78 02 a4 3d 12 c1 9f 3d
       0.025229843 0.04225846 0.080082834 0.07800497
000200 19 98 ea 3d a9 7a d9 3d 86 83 e6 bc 50 ae fc 3d
       0.114547916 0.10619099 -0.028138887 0.12337935
000210 48 09 48 3e 1c 0e 02 3e ab bd 38 bd e1 f8 22 bd
       0.1953479 0.12700695 -0.045102756 -0.03978813
000220 6a 0f d0 bd b3 68 6d bd 98 da f2 bd 7b 38 00 3d
       -0.1015919 -0.057961177 -0.118581 0.031303864
000230 c5 74 af bc 27 f2 57 3d ef 45 78 3d aa 62 94 3d
       -0.021417985 0.05272117 0.06061357 0.07245381
000240 d4 3f cd 3d 67 f8 51 3d 03 a1 e4 bd b5 e6 a3 bd
       0.1002194 0.051262286 -0.11163523 -0.08002988
000250 10 f5 aa bd 9b c5 30 bd f5 fd fe bc 8d bd f5 bd
       -0.08347523 -0.0431572 -0.031126956 -0.119990446
000260 fe 73 37 bd 12 2c f1 bc 45 64 a2 bd e5 b9 bf bc
       -0.044788353 -0.02943996 -0.07929281 -0.023404071
000270 35 d9 e7 bd 1b b9 42 bd ed 49 8d bd 39 05 cf bd
       -0.11320726 -0.04753981 -0.06898866 -0.10108418
000280 f5 44 a2 bd 18 e2 47 3c e6 ee 0e bc 22 5a a4 bd
       -0.07923309 0.012199901 -0.00872395 -0.08025004
000290 2e b9 a4 bc 2a 9e 6c bc 36 0e 84 bc 91 1d db bc
       -0.020107832 -0.014442006 -0.016120058 -0.026747497
0002a0 07 72 18 3e 1d e4 a2 3d de 77 35 3e cf a3 06 3d
       0.14887248 0.079536654 0.17721507 0.032871064
0002b0 dd 7c 73 bd 19 2d 02 bd 94 ca 04 3c 67 55 1a 3d
       -0.05944525 -0.03178129 0.008104939 0.037679102
0002c0 03 79 44 3d 37 7f fe bb 33 99 ee bc 4e 16 33 bd
       0.04796697 -0.00776663 -0.029125785 -0.043722443
0002d0 87 1a 40 3d 62 30 48 3d d6 c1 80 3d 61 5e bf 3d
       0.0469003 0.048874266 0.06286971 0.09344173
0002e0 57 7d a2 3d 4c 42 e4 3d a4 41 fa 3c db f2 87 3d
       0.07934063 0.111454576 0.030548878 0.06638118
0002f0 ed fa 71 3e 83 f6 89 3e 82 e5 38 3e 47 6c 09 3e
       0.23630877 0.26945886 0.180563 0.13420211
000300 51 30 c7 bc c9 f7 29 be b5 4f 36 be 18 ff f6 bd
       -0.024315031 -0.16598429 -0.17803843 -0.12060374
000310 90 7c 93 3c 20 56 0f 3c 51 ba d7 3d 32 d4 7d 3d
       0.018003732 0.008748561 0.10533584 0.061969943
000320 a1 54 92 3d f2 0b 69 3c f0 0c c5 bd 21 a2 54 bd
       0.07145048 0.014224039 -0.09621608 -0.05191243
000330 d7 a5 a2 bd 34 32 a7 bd 1e 62 8b bd f2 3f 0e be
       -0.07941788 -0.08163872 -0.06805824 -0.1389158
000340 0a 88 08 bd 89 65 a4 bc a2 7e f2 3d b7 68 ea 3d
       -0.033332862 -0.020067947 0.118405595 0.11445754
000350 43 34 46 3d 4d 21 02 3d f2 cf 5a 3d f1 96 63 3c
       0.048389684 0.03177004 0.05342097 0.013890968
000360 a3 1b 8a 3c a3 36 ee bd bc 75 90 bc c2 ba 06 bd
       0.016858881 -0.11631515 -0.017634265 -0.03289295
000370 6a fe 03 bd 1f e1 22 3d e5 46 c5 bb 8d 71 d3 3c
       -0.03222505 0.039765473 -0.006020414 0.025810981
000380 9e 34 99 bd 2b e3 1e bd a4 04 cb bb 6c ba 85 3d
       -0.07480739 -0.038790863 -0.0061956216 0.06529698
000390 b8 6d 19 3e b9 22 44 3e 97 7c 5a 3e 4b e5 25 3e
       0.1498326 0.1915387 0.2133659 0.1620075
0003a0 e2 98 0b bd 34 14 32 3d bd 62 cb bd da a3 fd bd
       -0.034081347 0.0434763 -0.09930942 -0.12384768
0003b0 de 95 56 be 15 92 a9 bd 66 ab 39 3c f2 71 85 3d
       -0.20955607 -0.08279816 0.0113323685 0.06515874
0003c0 1b 0a f5 3d f3 f2 c9 3d 8e 4b 26 3e d5 fc 9c 3c
       0.11964818 0.09860792 0.1623976 0.019163528
0003d0 e4 65 68 3d 98 34 d8 3d 72 1a 78 bd 9b f9 c2 bc
       0.056737795 0.105569065 -0.060572095 -0.023800662
0003e0 2d 82 e4 bc bc 92 c1 bd 71 25 d7 bd 33 3b 4f bd
       -0.027894104 -0.094518155 -0.10505188 -0.050593566
0003f0 2b b8 1f 3e 63 19 c3 3d fe 2a 9f 3d 59 e8 0c 3e
       0.15597598 0.095263265 0.07771872 0.13760509

fc1.bias f4 [16]
000000 a1 f0 e7 3b a2 d2 53 bd 63 c0 7b bd 09 d1 4b 3d
       0.0070782457 -0.051714547 -0.06146277 0.0497599
000010 e1 2f e5 3c c9 96 84 3d 0e a9 da bc c9 1a 97 b9
       0.027976932 0.064740725 -0.02669194 -0.0002882092
000020 ab 6d e2 bc 2c 69 46 3d 0c 40 16 3d 57 25 66 3d
       -0.027640184 0.048440143 0.036682174 0.056187954
000030 a3 e5 17 3c 06 1b 43 bc c9 c8 2b bd dd a6 c7 bc
       0.009271058 -0.011908298 -0.04193953 -0.024371559

fc2.weight f4 [8, 16]
000000 98 6e d2 be 82 32 20 bd ea 24 a3 3e 61 e2 24 3e
       -0.411 -0.039110668 0.318641 0.16101982
000010 ae 3a 04 3e 2f 7a 86 be b2 05 d0 be eb 16 00 bf
       0.1291301 -0.26265094 -0.40629345 -0.5003497
000020 bc 38 63 3e ac 75 f9 3c 55 db 24 be 62 cd af be
       0.22189611 0.030451618 -0.16099294 -0.34336382
000030 f9 ee 3e be 17 58 1e be 6d 44 e0 be 22 92 c9 3d
       -0.18645848 -0.15463291 -0.43802205 0.09842326
000040 b6 12 56 3d 58 f6 a0 3e 66 67 85 be 81 f8 fe be
       0.052263938 0.31437945 -0.2605545 -0.49798968
000050 34 04 62 3e 49 84 d1 be c5 b7 ac be 5a be 12 bf
       0.22071916 -0.40921238 -0.33733955 -0.57321703
000060 fc 83 35 3e 06 d3 8b 3d fc 5b 60 be cb e5 49 3e
       0.1772613 0.06827359 -0.21910089 0.19716565
000070 42 96 7e 3e a6 b1 2a be ff 30 bc be 6f 81 51 3d
       0.24862006 -0.1666933 -0.3675613 0.051148828
000080 8d 80 b8 3d d2 ba 21 be e6 ce a4 bd 15 10 bd be
       0.09008894 -0.15793923 -0.08047275 -0.36926332
000090 f3 c6 31 3e 94 87 1e be 42 e5 4c 3e d2 b8 9b be
       0.1736105 -0.15481406 0.2000933 -0.30414444
0000a0 e5 f9 8a be 22 3a 54 be 0d 93 9a be 22 13 42 be
       -0.2714378 -0.20725301 -0.30190316 -0.18952611
0000b0 bf 21 95 bd 39 0c d5 bd 73 5f 13 be 8c fb 91 bd
       -0.07281827 -0.10402722 -0.1439188 -0.07128057
0000c0 df a6 a8 3e 53 00 5e bd a0 4d 8f be cb 21 fb be
       0.32939813 -0.054199528 -0.2798891 -0.4904922
0000d0 fe 29 20 3e e4 02 77 3e df 94 d0 be bf 03 a3 be
       0.15641019 0.24122196 -0.4073858 -0.31838796
0000e0 4c dd 8f be 94 89 44 be f8 eb 9a be 5d 2a 94 3e
       -0.28098524 -0.19193107 -0.30258155 0.2893857
0000f0 73 f9 bc be c7 71 57 be 8e 83 ad 3e ea 79 03 be
       -0.36909065 -0.21039496 0.3388943 -0.12839475
000100 4d ab b3 be 81 9b 4a be b0 d2 1b be 81 0b 08 bf
       -0.3509163 -0.19785883 -0.1521709 -0.53142554
000110 7f 88 a8 be f7 35 9b 3e ce 3b 8b 3e ec 8a 3f 3e
       -0.32916638 0.3031461 0.27194065 0.18705338
000120 84 3d be be 25 62 bf be fb c5 b9 be 3a af 46 3e
       -0.37156308 -0.37379566 -0.3628386 0.19402781
000130 e5 ea 4c be 0b e9 2a be 51 1c 8b 3e c1 68 7a bd
       -0.2001148 -0.16690461 0.2717004 -0.061135057
000140 76 cb a8 bc 69 c4 72 3e 78 ef 86 be 3d cb 06 3e
       -0.02060483 0.23707737 -0.26354575 0.13163467
000150 af 7f da be ba 95 5b 3e 4b 04 8f 3e 0e 88 9a 3d
       -0.4267554 0.21443835 0.27932963 0.075454816
000160 45 93 a3 be f3 f1 c7 be ca b8 85 3e 4d 47 03 bf
       -0.31948295 -0.3905178 0.26117545 -0.5128067
000170 ba 79 35 3e 77 ed f1 bd 6b b8 55 be dc be 71 be
       0.17722216 -0.11812871 -0.20871131 -0.23607963
000180 88 3f 24 3e f7 71 3c be d0 ff 9f be 4f 82 94 bd
       0.1603986 -0.18402849 -0.31249857 -0.07251417
000190 2b 45 15 3e 92 f6 92 be a6 96 88 be 5b a9 1d 3e
       0.14577167 -0.28703743 -0.26677436 0.15396635
0001a0 a0 d5 8f be 0d 3c a3 be ec 07 79 3e 95 49 1a be
       -0.2809267 -0.31881753 0.24319428 -0.15067132
0001b0 c7 d8 70 be c9 14 c2 bd 60 26 c4 bd 21 4b 06 be
       -0.23520194 -0.09476621 -0.09577632 -0.13114597
0001c0 54 58 9b 3e 13 97 1f be 31 fa a6 3e 1d bb 58 3e
       0.30340827 -0.15584974 0.32612756 0.21165128
0001d0 9b 2a 9f be fc bf c7 bd 2c fe a8 be 3d ec 06 bf
       -0.31087193 -0.09753415 -0.33006418 -0.5270422
0001e0 0f 2e 13 3e 16 1e cb be 18 41 6b 3e eb 1d ac 3d
       0.14373039 -0.3967139 0.2297405 0.08404144
0001f0 f3 39 00 3e 73 b6 d4 3e 30 77 89 3e e7 53 7b be
       0.12522106 0.41545448 0.26848745 -0.24543725

fc2.bias f4 [8]
000000 1b e5 3b bd fc f7 0f be f1 64 b6 bd 92 1c d8 bd
       -0.04587279 -0.14059442 -0.08905972 -0.10552324
000010 2a e9 2a be 3e b2 45 3e 1b 40 5a 3e 36 2f dd be
       -0.16690508 0.19306275 0.21313517 -0.43200082
